ImageColorization/Scripts/models/best_model.pth (torch, 837327 bytes, 8 tensors)

encoder.0.weight f4 [64, 1, 3, 3]
00000000: 0502 83be 0414 303e 8dfc 393e 1421 02be
00000010: 5c0c b63e 26e3 023e d3af 9d3e 0028 e6bd
00000020: 2e4a 38be a171 043e 033b 75bd 4e0c 2b3e
00000030: 2c0c 7bbd 7d19 5dbe 8e8c b83d b56c 36be
00000040: 5fa9 29be 2daf d03e 3088 25be 68f0 cebe
00000050: 1b66 d13d cc48 aebd e53a 753e bec8 013e
00000060: d10f 3c3e 7844 6ebd 451a 423e bac8 8cbe
00000070: 0554 30be 0819 e33e 034e c2be 11fd bd3c
00000080: 0275 153e aa82 1e3e 72f5 43be 607c 6b3e
00000090: f99e fd3b 988b babe c228 85be 2a1d 47be
000000a0: a34a d53d fad2 49be f71c 3a3e 0c51 45be
000000b0: 13af d73e 47aa 2d3e 71af 1dbe 0ff3 c2bd
000000c0: dd37 213e cf49 eebd a7a1 843e 622c 9dbe
000000d0: 044e 873c d44c b3be c295 ddbd f763 bebd
000000e0: d835 543e 3c97 a9be d56b f33d 3b46 633c
000000f0: 6880 41be 8987 983e 64b9 733e 8800 93bd
00000100: 93ae 233e 44b1 86be d138 43be 0eac 3dbe
00000110: 7a6d dd3a f749 6fbe 80bf 183e a644 5dbe
00000120: fabc 493e d389 e73c ecb4 81be 7e11 46be
00000130: 8565 833e 4772 103e 9c54 1ebd 4a2c 423e
00000140: e94e 523e fe92 93be fe47 03be 178b a9be
00000150: a773 0ebe ad16 063d 4c1b c4be e64b d23d
00000160: c556 45be 3644 31bd 94a0 78bd 4973 bbbe
00000170: cae5 96be aa0d 213e fff2 be3d 2c13 38be
00000180: bca5 d03d d7f7 5d3e 3732 a33e 7ef3 67bc
00000190: 4de2 a1bd 4bc0 1fbe ae29 e73d fecc dfbc
000001a0: 6321 3a3e 1fef 903e 97e2 e23d 4768 e3be
000001b0: 9548 ab3e 88ce 8d3e c175 253e 2600 903e
000001c0: 3df6 033e 5cbf a9be 0e51 e2be 880e 5cbe
000001d0: 396e 75be ff5a 4f3e 1e0f 27be c687 54bd
000001e0: f5eb 7e3e 595d 293e ae85 953d e82b 57be
000001f0: 1f0d 103e 80fd 803d 695a a53d 8d6f ae3d
00000200: 9691 733e dbac 2fbe 8143 a63c 92c6 84be
00000210: b7bf d2be 56eb 8dbc 6f0a c93e d22a f33d
00000220: 1a2e cb3e 3881 adbe 20ba febd dd2b 1d3e
00000230: e2b7 b4be cf5b 803e 6e0d 493d a958 25be
00000240: 905c b1be 39d5 d13c 4ccb a9bc 009e 79be
00000250: 9738 59be 8dfe 813e 0dca 453e 686d 943e
00000260: 81ad 443e a795 9bbd 5e53 2dbd 7a56 6b3e
00000270: e8cf b4bd 2293 9e3d b965 6cbe 8b06 6c3e
00000280: e766 533e 9834 933e 806e f1bc b406 8a3d
00000290: 1331 99be 4a3f 87be 70c1 9abd 6673 aebd
000002a0: a7af a1be a952 a03e 76c6 adbd 1cac 8c3e
000002b0: f379 853d be99 803e b138 03be 83cf f6bd
000002c0: 924f 8ebe 9a3a 623e 9621 893e a92b 833e
000002d0: bcc1 2e3e 7258 3f3d 919f 36be 74ba ccbd
000002e0: 5e8b 4dbd a85b 3bbd fac1 3f3d 1484 a93d
000002f0: 2263 09bd 8c7c 013e 952a 82be b79b a03e
00000300: 91d6 87bd 4ce9 a7be d8fd b9be 13b4 823e
00000310: 4525 953e b7e6 3c3c c478 5abd ea0d 8dbe
00000320: c9a2 563e 0f70 883c e351 bf3d 5bc6 223c
00000330: 79b3 95be f595 a03d bd8f 3fbe 44d5 2e3d
00000340: 21ba 633e 1f51 38be 6c9a 853d 6e04 1d3e
00000350: d887 b2be 63a3 9d3e 1a4c 3cbe ab37 a9bc
00000360: 69b3 d13d c083 32be ad1e ccbe fe0e 203e
00000370: 6d34 7e3e fb00 a7bc 1e9c 72be eda3 833b
00000380: 0c9b a83e bd84 adbd 2183 ae3c ff0b d7bd
00000390: 3fd6 94be 5b07 aebc 4679 fcbd 6fb2 ac3d
000003a0: 8060 853b ccf8 593e ee84 d23d 790c 7fbe
000003b0: 047e 50be 5522 153d 3f43 903e 5326 563e
000003c0: b26a 0b3e 31de b3bc c643 e13d 38ec d0bd
000003d0: 23d1 683e 892f a23e 35df 4ebe 3705 16be
000003e0: a225 9a3d 85ef 943e 77ff a4be 12bb 08be
000003f0: 6f9e b6be bc53 36be 193c 16bf 550a cfbd
-0.25587478 0.17195135 0.18162747 -0.12707931 0.35556304 0.12781963 0.30798206 -0.11238098
-0.17997047 0.12933971 -0.05987073 0.16703913 -0.061290905 -0.21591754 0.09011184 -0.17814906
-0.16568516 0.4075865 -0.16165233 -0.4041779 0.10224553 -0.08509979 0.23948248 0.12674233
0.18365408 -0.058170766 0.18955334 -0.27496892 -0.17219551 0.44355035 -0.37950143 0.02319196
0.14595416 0.15479532 -0.19136599 0.22996664 0.0077398983 -0.36434627 -0.26007658 -0.19444719
0.104146264 -0.19709387 0.18175112 -0.19269198 0.4212576 0.16959487 -0.15398957 -0.09519016
0.15743966 -0.116351716 0.2590458 -0.30697924 0.016516693 -0.35019553 -0.1081958 -0.092964105
0.20723665 -0.33123195 0.11885802 0.013871725 -0.1889664 0.29790905 0.2380119 -0.07177836
0.15984564 -0.26307118 -0.19064642 -0.18522665 0.0016893588 -0.23368059 0.14916801 -0.21608219
0.19700995 0.028263962 -0.25333345 -0.1934261 0.2566339 0.14106093 -0.03865491 0.18962207
0.20537914 -0.28823084 -0.12820432 -0.3311393 -0.13911305 0.03273647 -0.38302076 0.10268383
-0.19271381 -0.04327794 -0.060700014 -0.36611393 -0.2947219 0.15727869 0.093236916 -0.17976063
0.10187861 0.21676575 0.31874248 -0.014157174 -0.079044916 -0.15600698 0.11287247 -0.027319428
0.18176799 0.28307435 0.11078375 -0.44415495 0.33453813 0.27696633 0.16158201 0.28125113
0.12886901 -0.33153808 -0.44202465 -0.21489918 -0.23967828 0.20249556 -0.1631436 -0.051887296
0.24894698 0.16539516 0.07300888 -0.21012843 0.14067505 0.06298351 0.08073885 0.085173704
0.23786005 -0.17155783 0.02029586 -0.25932747 -0.41161892 -0.017324131 0.39265773 0.11873402
0.3968361 -0.3388765 -0.12437844 0.15348764 -0.3529654 0.25070044 0.049085073 -0.16147102
-0.34640932 0.025614368 -0.020726822 -0.24376678 -0.21212994 0.2538952 0.19315358 0.2898972
0.19206811 -0.07596903 -0.042315833 0.22982207 -0.088287175 0.07742907 -0.23085679 0.23049371
0.20644723 0.28751063 -0.029471636 0.0673956 -0.29920253 -0.26415473 -0.075564265 -0.08518104
-0.31579325 0.31313065 -0.08485119 0.2747506 0.065174006 0.25117296 -0.12814595 -0.120512985
-0.27795082 0.22092667 0.26783437 0.25619248 0.17066091 0.046715207 -0.17834307 -0.099965006
-0.05018174 -0.045741707 0.04681585 0.08277145 -0.033541806 0.12645167 -0.25423113 0.313688
-0.06632722 -0.3279518 -0.3632648 0.2552801 0.29129997 0.011529616 -0.053337827 -0.27549678
0.20960535 0.016654996 0.093417905 0.009934987 -0.2923849 0.07841102 -0.18707176 0.042683855
0.22238971 -0.17999695 0.06523594 0.15333721 -0.34869266 0.30788717 -0.18388405 -0.020656427
0.10239298 -0.17433071 -0.39867154 0.15630719 0.24824686 -0.02038621 -0.23692366 0.004017344
0.3293079 -0.084725834 0.021302762 -0.10500335 -0.29069707 -0.021243742 -0.123278186 0.08432471
0.0040703416 0.21286315 0.102792606 -0.24907102 -0.20360571 0.036409695 0.28176305 0.20913057
0.1361492 -0.021956535 0.10999255 -0.10201305 0.2273603 0.3167689 -0.20202334 -0.14650427
0.07526709 0.2908899 -0.32226154 -0.13352612 -0.3566775 -0.1780538 -0.5868545 -0.101093926

encoder.0.bias f4 [64]
00000000: cd33 bfbe 433a 41bd fbfb 26bd 456a 0e3d
00000010: 3327 623e fb68 313e 967d 52bd 124c 903e
00000020: a5e9 d7bd 8d21 6d3e dd4b 063d 7d25 c33c
00000030: 4125 1d3d 1bd0 dbbe af5c 253d 06cf 9f3c
00000040: 4d7f 25bd cbed a9be de4d 85be 17ed 63be
00000050: d8fe 46bc 083f 5e3c 7bc3 8f3e bb66 2dbc
00000060: dc85 933b 144e e23d c42a adbe 578e ba3b
00000070: 8631 f43d 9e1b 35bb 6b1d 0ebb f604 b9bc
00000080: babd b93d 7da3 563e 0877 a6be b14f fc3d
00000090: 1427 8abe 5391 1e3c c3c3 4e3e 840a 973e
000000a0: dad3 41bb b099 46be 7704 04bd a8f7 64bb
000000b0: f8f3 f53c f4a6 993d 632b 9b3d 8d05 1d3e
000000c0: 7b03 98bb 6724 383e 5df1 823d 1126 22be
000000d0: 4d45 553e 3775 3d3e 4813 983e 1d1b d5ba
000000e0: 0e76 ac3d b1be 903e a084 00be 9cd3 94be
000000f0: e165 203e 7eaa 863e ef3a e4bb 38a7 b03d
-0.37344208 -0.047174703 -0.04076765 0.034769315 0.22085266 0.17325203 -0.0513893 0.28183037
-0.10542611 0.2315733 0.032787193 0.023821587 0.038365606 -0.4293221 0.040371593 0.019507896
-0.040404607 -0.33189234 -0.2603597 -0.22258411 -0.01214572 0.0135648325 0.28078827 -0.010583575
0.0045020413 0.110500485 -0.3382169 0.0056932378 0.11923508 -0.002763487 -0.0021685015 -0.022585373
0.090693906 0.20960803 -0.3251269 0.123198874 -0.2698294 0.009678203 0.20191865 0.2950021
-0.0029575736 -0.19394565 -0.03223082 -0.0034937654 0.03002356 0.07502547 0.07576635 0.15334149
-0.004639087 0.17982636 0.06393693 -0.15834834 0.20827217 0.18501745 0.2970221 -0.0016258691
0.08420955 0.28270486 -0.12550592 -0.29067695 0.15663864 0.2630195 -0.0069650332 0.086256444

encoder.3.weight f4 [128, 64, 3, 3]
00000000: 6d17 a5bd 26ae 1f3e 75f2 df3c 9f49 a73e
00000010: 1568 2b3e e13f e8bd 9e10 4b3e 9821 c63d
00000020: 01df 1c3e ad62 5cbd dd9b cfbd e9ec 433e
00000030: f36c a7bd 5ecd 07be 03b8 6d3e 5194 213d
00000040: 68b6 a83d 8cb3 663e ccd1 59bd 124d 903c
00000050: bf47 99bc a98f b53b 0114 01bb 80cb f4bb
00000060: c46a cabc 7d65 a03c 7a15 7e3c 4a06 fabd
00000070: aac1 65bd 0c70 92bd c79c 65bc 70f1 15bf
00000080: fff1 9e3d f642 36bd 0138 11be fdd3 a63c
00000090: 4847 9fbc 6366 8c3d 310f 853d 8ad4 6a3d
000000a0: c1cf 1f3e dc24 113d a43c 7b3d 2554 b03d
000000b0: 8764 623c 2a12 a3bb 5ff8 223d f062 f737
000000c0: a74f 8a3d 08fa 5f3d 665d 40bc 5210 703c
000000d0: d4e7 dbbc 8401 113d c615 333d d768 a0bd
000000e0: 899d 0ebc 6f19 cb3d fd3f 9cbe 73e5 3e3c
000000f0: 96d2 e73d 36e4 88bd 462f e63d 67dc 19bc
00000100: 71e7 573d 3f6f 2d3c 3a71 5a3d 8f5b 3a3e
00000110: e91e 3f3c 4690 cfbd 57ca 84bb 0eb9 203d
00000120: 0361 31bc bc6d 1d3b 237c 59bc 71d6 bdbb
00000130: b569 043d 6f45 dcbb 5c23 6b3c 1332 163d
00000140: a07c 643c 421b 823d f092 a6bd 4ca1 d0bd
00000150: 0cf4 f9bc 7e6f 3a3d d966 c3ba a308 88bd
00000160: 8826 013d 47c7 40bd a2bd 67bd 3aed 8bbd
00000170: 08c9 47bd 6239 8cbc 0def bc3b fe88 96bc
00000180: 6daa bc3d 2ab2 853c 9701 403c c868 063d
00000190: 80ea d5bc c37a ca3c 177b 17bc 9a90 f63c
000001a0: 34a1 5abb b3e6 c9ba b301 893c 2d3a 083d
000001b0: cdb4 46be 7eb7 27be df99 87bc b48c af3d
000001c0: e993 3d3d 4aeb 11bd 8883 1f3d c237 09bb
000001d0: 1f32 53bd 00e7 66be bf14 a9bd b94b 20be
000001e0: 7eee 743d 9ed2 523e 80b4 c43d 7c7c b8bd
000001f0: e056 9abd 22de 1cbe 841c 8d3a 1ff8 e1be
00000200: 8144 a2bd 2f81 553d 5c02 2ebe 913c 0d3d
00000210: 3afc 063c a761 15bc d344 b4bd 7998 90bd
00000220: 8920 263d f398 583d 7238 9cbd 1e46 77bd
00000230: b28c 69be ba53 b23d 9d7a 113d 2c1a f6bd
00000240: 216c 95bc b87d 59bc 50ed e9bc bb70 9dbb
00000250: cb61 72bd 58f8 49bc c0c5 bb3c 5ab5 d83c
00000260: 7029 1f3c 1486 063d 81cc 34ba 7d88 333d
00000270: 46f3 2b3c 07ab 913d 4d3a 9d3d 7136 a13d
00000280: d371 d03d 769f e73d 00a8 a03c 2018 003c
00000290: c890 95bc 3844 c4bc e8b0 93bc 0013 37bb
000002a0: 2002 08bc 5971 263d a230 10bd 9565 3dbc
000002b0: 2572 3a3c d7bb dc3c 411d d8bc 99ed 1c3d
000002c0: c791 eabb 97ae 803d 0500 5f3d b21f 853c
000002d0: 8b2f 003d 834a 733b 4c2c 96bc 5654 0fbc
000002e0: 1940 b8bc 4441 1cbc a779 a03c 9672 0c3c
000002f0: df1d 25bb 5f96 85bd 5b1d 15bd 8d3b 413c
00000300: 5b36 41bc a9b3 0b3d 9040 6d3d 47cb 7b3e
00000310: 42ee 3c3e 6766 273d 82e8 0fbc e5fc 3a3d
00000320: 7250 d3bc e6dc 223d 1894 b83c ad34 16bc
00000330: 8208 d7bd 951e 81bd f369 91bc 4916 aabc
00000340: 4ab2 dcbb 0bce 453c b68e dabc 363c c0bd
00000350: 7db5 d0bd d788 babc b44a 58bd 566a 11bd
00000360: 8e28 23bd 17ef fabd 24cf 34bb c35b 47bc
00000370: 0836 b33d bff3 ce3b 717e abbb 6649 97bd
00000380: bfe1 7bbd 19ea b5bc 748d c13b 8a55 253d
00000390: 6af9 d43c 1fa4 3cbd 5cfb 84bc 84cf d43c
000003a0: 1ff3 0c3d e3d6 953b 80ec 3cbd f29c 5a3d
000003b0: af4d c63c cba5 5a3d 9a7b ab3e 5b2c ba3d
000003c0: 45e5 af3e 5aea 8b3e 44f6 b43e 2599 66be
000003d0: dea4 8d3c 613c 763d 46d8 503c 90e2 503d
000003e0: 80c6 533c b98f 8b3d 0e35 ff3c d079 313d
000003f0: 30ab c23d eb0a 243d 8c17 0cbe 6159 3dbe
-0.08061109 0.15593776 0.027337292 0.32673356 0.16738923 -0.11340309 0.19830558 0.09674376
0.15319444 -0.053805042 -0.101371504 0.19133343 -0.08175077 -0.13261935 0.23214726 0.039448086
0.08237916 0.22529429 -0.053178594 0.017614875 -0.018710969 0.0055408073 -0.001969576 -0.007470548
-0.024709113 0.019579643 0.01550805 -0.12208231 -0.056092896 -0.071502775 -0.014014429 -0.5857153
0.07761001 -0.044497453 -0.1418152 0.020364756 -0.01944317 0.06855466 0.06497038 0.0573316
0.15606596 0.035435542 0.06133713 0.08609799 0.013817913 -0.0049765306 0.039787646 2.9490766e-05
0.06753474 0.054681808 -0.011741018 0.014652329 -0.026843943 0.035401836 0.043721937 -0.078324966
-0.0087045515 0.099169604 -0.3051757 0.011651385 0.11319463 -0.06684153 0.112394854 -0.009390927
0.052710954 0.010585605 0.053330638 0.1819899 0.011665084 -0.1013494 -0.004052441 0.039238982
-0.010826352 0.0024021706 -0.013274225 -0.0057933857 0.032327373 -0.0067221443 0.014351692 0.03666885
0.013945729 0.06352855 -0.08133495 -0.10187015 -0.030511878 0.045516483 -0.001490797 -0.06642272
0.031530887 -0.047065046 -0.056577332 -0.06832357 -0.048775703 -0.017117206 0.0057658018 -0.01837587
0.09212194 0.016320307 0.011719129 0.03281477 -0.026112795 0.02471674 -0.0092456555 0.030098248
-0.0033360245 -0.0015403837 0.016724443 0.033258606 -0.19404908 -0.1637859 -0.016552864 0.08571759
0.046283636 -0.03562478 0.038943797 -0.0020937775 -0.05156147 -0.22549057 -0.0825591 -0.15653886
0.059797756 0.20588157 0.0960474 -0.090081185 -0.07536101 -0.15319112 0.0010765945 -0.44134614
-0.07923222 0.052125152 -0.16993088 0.03448159 0.008238846 -0.00911752 -0.0880219 -0.07060332
0.04055837 0.05288024 -0.076279536 -0.060369603 -0.22807577 0.08707376 0.035517324 -0.12016711
-0.018240036 -0.013274603 -0.028555542 -0.0048046983 -0.059175294 -0.012327276 0.022921443 0.026453663
0.009714469 0.03284271 -0.00068969285 0.043831337 0.010495013 0.07112699 0.076771356 0.07871712
0.1017796 0.11309712 0.019611359 0.007818252 -0.018257514 -0.02395831 -0.018028691 -0.002793491
-0.008301288 0.04063544 -0.03520263 -0.011559864 0.011379753 0.026945038 -0.026381137 0.03831253
-0.0071584913 0.062833 0.054443378 0.016250465 0.03129534 0.003712327 -0.01833167 -0.008748135
-0.022491502 -0.009537045 0.019589258 0.008572241 -0.0025194807 -0.06522822 -0.03640495 0.011793983
-0.0117927445 0.034106884 0.0579229 0.24589263 0.18450263 0.040869143 -0.0087834615 0.045651335
-0.025795195 0.039761446 0.022531554 -0.009167832 -0.104996696 -0.06304661 -0.017750716 -0.02076258
-0.006735121 0.01207305 -0.026679378 -0.09386484 -0.10190866 -0.022770328 -0.052805617 -0.0355018
-0.039833598 -0.12252634 -0.0027589286 -0.012167874 0.0875054 0.006315678 -0.005233579 -0.073870465
-0.061494585 -0.022206353 0.005906755 0.04036478 0.025997836 -0.046054956 -0.016233139 0.025977857
0.034411546 0.0045727356 -0.04612398 0.05337233 0.024206964 0.05338077 0.33492738 0.090904914
0.34354606 0.27327234 0.35344136 -0.22519358 0.017290529 0.060116176 0.012746876 0.050997317
0.012925744 0.06814522 0.031153228 0.04332906 0.09505308 0.040049475 -0.13680857 -0.18491127

encoder.3.bias f4 [128]
00000000: b047 7e3d 924a fb3c 1c99 31bd be49 493d
00000010: ad39 65bb 911b 3d3d 2182 833d a8f2 1d3d
00000020: 7213 313d e3eb 093d 0f51 86bd 95a3 21bd
00000030: 037c 983c b676 af3d 681c 8f3c df6c 9bbc
00000040: 7e08 003c f2f0 4e3c a124 9e3d ba2d cf3d
00000050: a69d d838 252e 2b3d 3501 84bc a2a2 263d
00000060: 7661 823d 37f3 753c ee49 19bd 09bd c33d
00000070: db16 c1bc e012 7f3c c21e b0bc e088 b0bc
00000080: 467f e9bb 87ac a7bc 0353 383c 16a0 813d
00000090: a0c0 ee3c cba5 37bd b6cd b13d 5233 a23d
000000a0: 6129 b63c c0b1 20bd c796 1b3d 5232 973c
000000b0: 029f 523d 5100 f93b e153 bdbc e0e1 8f3b
000000c0: f716 443d 366e 443c 251f 653c 7347 25bc
000000d0: 6a6a e83c e8ed ca3b 1372 563d 287f 803b
000000e0: d476 4c3c fbd5 27bd 08fb 923d d8a6 2f3d
000000f0: 8a45 e1bc 8dae 0e3d ad6e 6b3c 9215 2f3d
00000100: cf8e 73bd e166 94bc dbf9 0abc 86c6 f6bc
00000110: ce28 283d 2033 49bd 3b5c 003c 4b1c d83b
00000120: d6f5 46bc 6e00 f63c 0742 9a3d bc41 cd3c
00000130: 7e22 01be fdf3 3ebb 64dd adbb d2a4 fb3d
00000140: 9537 e2b9 f440 a63b a496 2b3d b663 57bb
00000150: a381 a1bd 3df4 c53d da5e 573a 3fe3 0e3d
00000160: 8306 b93d a451 233b 82eb 18bd 15b0 b33b
00000170: 0ce9 5d3d 7bd9 45bd 60d0 74bc 5b93 c9bc
00000180: 1eec 543c 4e63 183d c3a7 f3bc 49db 063d
00000190: 9d07 77bd 4066 c33c 868f a0ba 0eb1 5a3d
000001a0: c2c5 3dbd 8790 fc3d 4e8c eabc ee58 fb3b
000001b0: 22f3 4f3b 4c47 a83d 06ab 403c df26 543d
000001c0: 0872 b93c 04e0 713d a750 903d 1667 e93d
000001d0: d0d5 943d a2f0 8f3c 54a0 78bc b059 77bb
000001e0: accd 1abd b3df 113d 183f 18bd e47b c13c
000001f0: 4fbf 67bc 904f 2b3d cc9c 15bd 3416 2a3d
0.062080085 0.030675206 -0.043358907 0.04914259 -0.0034977004 0.046168867 0.064213045 0.038561493
0.043231435 0.033672225 -0.065584294 -0.039462645 0.01861382 0.08567564 0.0174696 -0.018972812
0.007814525 0.012630688 0.0772183 0.101161435 0.00010329047 0.041792054 -0.016113857 0.040682442
0.063662454 0.0150116 -0.03742402 0.0955754 -0.023570469 0.015568465 -0.021499041 -0.021549642
-0.007125768 -0.02046801 0.01125026 0.06329362 0.029144585 -0.044835847 0.086818144 0.07919945
0.022236528 -0.039232016 0.03798559 0.018456612 0.051421173 0.0075989147 -0.023111286 0.00439094
0.047873463 0.011989167 0.013984476 -0.010087836 0.028371055 0.0061929114 0.052354883 0.003921408
0.012479503 -0.040975552 0.07176787 0.042883724 -0.02749898 0.034834433 0.014369649 0.04274518
-0.059462365 -0.018115463 -0.008482422 -0.03012396 0.04105454 -0.049121022 0.007834489 0.0065951697
-0.012143573 0.030029502 0.07532125 0.025055759 -0.12610814 -0.0029137128 -0.005305933 0.12287296
-0.0004314749 0.005073661 0.04189171 -0.0032865829 -0.07886054 0.096657254 0.0008215733 0.034884688
0.09034445 0.0024920488 -0.037333973 0.005483637 0.05417733 -0.04830311 -0.014942259 -0.024606397
0.012995748 0.03720408 -0.029743081 0.03292397 -0.060309995 0.023852468 -0.0012249805 0.05339151
-0.046331175 0.12332254 -0.028631356 0.0076705134 0.0031730612 0.08216724 0.011759525 0.051794883
0.022637382 0.05905153 0.07046633 0.11396615 0.07267344 0.017570797 -0.015174944 -0.0037742667
-0.0377938 0.035613727 -0.037169546 0.023618646 -0.014144733 0.041823924 -0.036526486 0.04152508

decoder.0.weight f4 [128, 64, 4, 4]
00000000: 8145 ecbc 628f be3a 2719 8d3c d784 3fbd
00000010: f9eb 25bd 16d9 3c3e 2fdd b3bc 3167 7a3d
00000020: 61f0 c03a 4dc7 603d 8e98 f4bc 1560 45bb
00000030: f828 213d afe2 c93d a49c c73c 0439 dc39
00000040: c842 243c be0b bc3c f6ef c73a f9d0 18bd
00000050: f66d a0bd 4c97 d9bb 1fd1 4b3d 3d90 9ebb
00000060: 454b c93a b7f4 c63b 9972 cdbc b9e2 6abd
00000070: 99fd b4bd e1ec 8d3c f799 34bc 5af9 883c
00000080: 0231 61bd 4092 04bd 61cf bf3b 1eb4 53bd
00000090: f2d8 533a c0a2 de3c 4125 20bc 19d2 11bc
000000a0: 8174 413c 5d70 653d b875 95bb 3a4e c43c
000000b0: 2ee8 d9bc ffb9 47bc 258f ff3b 8b78 423d
000000c0: 24b0 4e3c d774 d73c 3de9 97bc 27b7 78bb
000000d0: be87 03bd 20a0 58be a04d 36ba 209d 3fbe
000000e0: 8df6 cebc e804 93bd a432 fbbc eaec 06bd
000000f0: 975c c4bc 2287 4abd 0356 9d3b 5e8f b6bd
00000100: 3595 dc3c 4666 09bd 182c 103c ba57 e7bb
00000110: b38a 80bb 6aad 5a3d c3c2 893c 14b0 8e3c
00000120: 7f27 7d3c 11e5 32bd 3167 833a 59d1 6bbb
00000130: 04ee f53c 9d13 c33c 667f 6d3d 8109 563b
00000140: 758d 2a3d 494d a53d eb22 e93c 0bac b3bb
00000150: c1ee e0bc 012f c3bc 8b84 fbbc 710d 95bb
00000160: 6d8a 903d e942 d53c a7a2 013e d564 2f3d
00000170: fc31 92ba 534e 1abc f1b0 02bc db59 c93b
00000180: 9fff d4bc 4089 be3c 9306 dc3b d3e2 89bc
00000190: 5283 853d 69de f23a a67e b1bd 4542 03bc
000001a0: 4b43 123d 8eab d1bc 4982 2d3d 9262 6d3b
000001b0: f448 77bd 694d 1fbc b8db 23bd 9e8b f5bc
000001c0: fc0a 663d cfd1 04bd 8dcf fe3c a0ad 38bb
000001d0: a6fe aebc 90c5 04bc 78cc 803c 1074 313c
000001e0: e1d8 5b3d 015a 293d 9ed0 223d ead5 7f3c
000001f0: 8aaa a83b 5dc5 323b ddef 873c 4a13 853c
00000200: 8640 0b3c 22b6 883c 937e aeba fa29 d2bc
00000210: 0b8c 723c e417 e13d fcb6 32bc 2b90 f33c
00000220: 8a5c 313d 3199 caba 11c7 993c 448b a73c
00000230: 475b c1bc 1225 9bbd 40a1 813a b96d 5ebd
00000240: 560a 1b3b 32cd eebc 1411 093d ea35 c13c
00000250: a2c6 da3d 2e72 853e e195 e33d f957 ba3d
00000260: 4935 233d 8989 bd3c ad83 b43c f5fa 04bd
00000270: 6209 ba3c 30fd 023e e1e5 86bc eabb c53d
00000280: 6e16 313b 4097 7f3c d4f4 01bd 378b 803c
00000290: beda 943d 3912 b4bd 4be3 993d 88a8 24bd
000002a0: a156 1abc ff8f 99bb bad3 02bc a493 213c
000002b0: c178 92bc f0d1 773a 997a 12bd 572c 1bbc
000002c0: 829a 363c 2954 0ebd 7225 26bc 2cd9 8abc
000002d0: 0bde 913c 1d04 253c 6a27 443d 4ee8 54bd
000002e0: 813c 85bc 719f 64bc cb52 d4bc 0918 4abc
000002f0: 05aa 06bd d453 bbbb c619 cabc 38b9 f7ba
00000300: 014c 84bc a7dc eb3c 5a84 19bc 798e dabb
00000310: 1b81 963d 0f46 45bc 6b3f 06bd 08ca 963c
00000320: 292b b03c 8070 e63c 9317 933c 864c af3c
00000330: 8b35 1ebd 5c52 98bc 0e79 9ebd 066f 553b
00000340: 732f 643b ad4a 073d 1e9f b1bb 75ff dd3c
00000350: de26 07bd bfba 3dbe 92ce 31bc 71e1 5bbd
00000360: f6b6 063d f8ca 143d 1631 343d 8bcc e3bc
00000370: badf 95bc 706e 48bd 71d3 9cbc 4ad5 a2bd
00000380: e4a4 16bc 4a19 cc3d 43db 8cbc 39bd bc3c
00000390: d82a b33d 38cb 23bd 1acf 8e3c e922 16bd
000003a0: 5646 15bc b2f3 06bd 18f6 6d3c e3a9 11bd
000003b0: 1431 9c3c 8610 f4bc 37bf c4bc 960f 41bd
000003c0: 93fe a6bd a598 84bd 32c7 7fbd f6de a73c
000003d0: 464d d5bc e60a 17bb b799 c63b 8c8f 4abc
000003e0: 18fc 97bd f502 7f3d 0305 4abd 93c8 603c
000003f0: a5e9 703c e351 07bd c2bd 063d af13 9aba
-0.028841736 0.0014538581 0.017223908 -0.046757545 -0.040508244 0.18442187 -0.021956054 0.061133567
0.0014720076 0.054877568 -0.0298579 -0.0030117084 0.03934571 0.098576896 0.024366684 0.0004200415
0.0100256875 0.022954818 0.0015254009 -0.037308667 -0.078334734 -0.0066403504 0.04975998 -0.004838972
0.0015357515 0.0060716528 -0.025079058 -0.057345126 -0.088374324 0.017324867 -0.011023036 0.016720463
-0.054978378 -0.032366037 0.005853579 -0.051685445 0.00080813386 0.027177215 -0.009774507 -0.008900189
0.011807562 0.05601536 -0.0045611523 0.023963083 -0.02659997 -0.012190341 0.0077990466 0.04747824
0.012615237 0.02630083 -0.018543834 -0.0037950964 -0.032111876 -0.21154833 -0.0006954316 -0.18712282
-0.025264049 -0.0717867 -0.030663796 -0.032940783 -0.023969932 -0.04944528 0.004801513 -0.08914064
0.026926616 -0.0335448 0.008799575 -0.0070600184 -0.0039227842 0.053388037 0.016816502 0.017417945
0.015451311 -0.043675486 0.001002526 -0.0035982935 0.030020721 0.023813063 0.057982825 0.0032659473
0.04163881 0.080713816 0.028459033 -0.0054831556 -0.027457597 -0.023826124 -0.03070285 -0.0045487215
0.070576526 0.026032882 0.12659703 0.04282077 -0.0011153813 -0.009418088 -0.007976756 0.006144745
-0.026000796 0.023258805 0.006714651 -0.016831791 0.06519188 0.0018529418 -0.086667344 -0.008011405
0.035708707 -0.025594499 0.042360578 0.0036222083 -0.060372308 -0.009723046 -0.040004462 -0.029973801
0.05616282 -0.03242665 0.031104827 -0.002817966 -0.02136166 -0.008103743 0.015722498 0.010830894
0.05367363 0.0413456 0.039749734 0.015614966 0.005147283 0.0027278282 0.016593868 0.01624455
0.00849927 0.01668841 -0.0013312869 -0.025654782 0.014803897 0.10990885 -0.010907885 0.02973183
0.043301143 -0.0015457032 0.01877168 0.02045215 -0.023603095 -0.0757543 0.0009889975 -0.05430386
0.0023657284 -0.02915058 0.033463553 0.023585279 0.106824175 0.26063675 0.111125715 0.09098811
0.03984574 0.023136871 0.022035444 -0.032465894 0.022709552 0.12791896 -0.016467037 0.096549824
0.0027021426 0.015600026 -0.031727627 0.015691383 0.07268284 -0.08792538 0.07514056 -0.040199786
-0.009420068 -0.004686355 -0.00798505 0.00986186 -0.017879846 0.00094535854 -0.03576145 -0.009471021
0.011145236 -0.03474823 -0.010140764 -0.016949259 0.017806074 0.010071781 0.04788915 -0.051979356
-0.016264202 -0.013954029 -0.025918385 -0.012334832 -0.032876987 -0.00571678 -0.024670493 -0.0018899804
-0.016149523 0.028791739 -0.009369934 -0.006669816 0.07348844 -0.012040629 -0.032775324 0.018406883
0.021504955 0.028129816 0.017955577 0.021398794 -0.03862528 -0.01859396 -0.07737933 0.0032567396
0.003481832 0.0330302 -0.0054205796 0.02709935 -0.03299605 -0.18528269 -0.010852473 -0.053681795
0.03288933 0.03632638 0.043992124 -0.027807495 -0.018295158 -0.048933446 -0.019143792 -0.07950838
-0.009194586 0.09965761 -0.017194396 0.023039447 0.08748406 -0.039988726 0.017432738 -0.036654387
-0.009111008 -0.03294725 0.014524005 -0.035562407 0.019066371 -0.029793035 -0.02401696 -0.047134005
-0.08154025 -0.06474427 -0.062445827 0.020492058 -0.026037823 -0.0023047267 0.0060608047 -0.012363326
-0.0742113 0.06225868 -0.049321186 0.013719696 0.014704143 -0.033037078 0.03289581 -0.0011755134

decoder.0.bias f4 [64]
00000000: 2982 453a a2c8 d93c 635e c73b 6008 083d
00000010: 8d11 18bc 1c06 9f3c 62b3 e33c 2b56 ee3a
00000020: 3fa0 243d 58f1 cfbb afef 423d ae93 5c3b
00000030: cd0b 043d bfac 18bc c455 cfbd e880 f23c
00000040: 809a 083d f671 e13c 9f53 8f3c 6eb1 e9bb
00000050: d319 12bd f831 003d 7fb9 bf3c 1437 c4bb
00000060: 66d4 893c 7587 133d d2f6 243d 0317 933c
00000070: 93de 9d3b 09c5 9f3c c7eb 1f3c aba8 533d
00000080: bbf4 80bc 0d0d a63c fc61 f03c fc74 063e
00000090: e0b7 9fbd 5a7f 63bb 5a66 9d3c 6d14 293b
000000a0: 8c01 02bd 3cd1 713d 6da2 1b3b d4e3 533d
000000b0: 917b a3bd dfcc f83c 2233 da3b 3cc6 803b
000000c0: efb7 2c3d d2a0 833d 9e78 ed3c 5d2a 123d
000000d0: fb61 343d a7b2 153d 2e73 e33b bae8 72bc
000000e0: c7f4 f13c 8749 17bc fe0c ac3c 8b70 a0bc
000000f0: 4a69 c23c 58be 6ebd fb62 11bc 460d 373d
0.0007534349 0.026584927 0.00608425 0.033211112 -0.009281528 0.019412093 0.027795497 0.0018183639
0.040191885 -0.006345909 0.04759186 0.003365736 0.032237817 -0.00931853 -0.1012378 0.029602483
0.033350468 0.027520161 0.017495928 -0.007131747 -0.03566916 0.031297654 0.023403881 -0.005988011
0.016824912 0.036017854 0.04027445 0.017955309 0.0048177927 0.019503133 0.009760804 0.051674526
-0.015741697 0.020269895 0.029343598 0.13130563 -0.07798743 -0.0034713359 0.019213844 0.0025799528
-0.031739756 0.059037432 0.0023747936 0.051730946 -0.07982553 0.030371128 0.0066589275 0.0039298814
0.0421676 0.064271584 0.028988179 0.035684932 0.044038754 0.03654733 0.0069412207 -0.014825994
0.029535664 -0.009233839 0.021002289 -0.019584915 0.023731846 -0.058286995 -0.008873696 0.044690393

decoder.2.weight f4 [64, 3, 4, 4]
00000000: 4ee5 af3d 21b7 973d 02a3 923d 177d 0e3d
00000010: 6e40 ce3d e9ff 013e 6a79 163e 01c1 9b3d
00000020: 022d 5b3a 0e59 513e 6889 193e 00c0 5a3c
00000030: 2c83 11bd ec40 963d 975a 37bd 3adf b9bd
00000040: 1130 42bd 6091 893d e807 9e3d 9ae7 a23c
00000050: 0608 3fbd fe69 f23d 7ddf 943d 2923 223d
00000060: eaea b2bc d49c 643e ccd1 443e ee6f 833d
00000070: 33f9 883d 872e f43d 6876 b23d e649 dabc
00000080: 4901 3dbd 9d60 ea3d 0cbb 123d 40d2 1abd
00000090: d215 84bc 17c5 313e 8b1f 28b9 54d1 86bc
000000a0: 5ad0 bfbc e183 6f3e e9c1 c83d 6056 f13d
000000b0: 3211 6ebd bb80 003e 4d22 1b3e 2634 db3d
000000c0: 0f3c ecbc a27f eabc 0790 ebbd eb22 40bc
000000d0: 9c64 ad3c 7af0 66bd 0fe5 7abe 8801 1ebd
000000e0: 890f babb fc28 bfbd 0916 5cbe 2c9b eebd
000000f0: 21df 70bc fd95 15bd 8337 d0bd b24b 80bc
00000100: 28f7 543d b6ea 963c e36e c6bd 183d fcb8
00000110: aa7c d23c a552 42bd 4459 87be 3679 28bd
00000120: 0b58 ca3c 4871 d5bd d05c 99be 7c7b 0fbe
00000130: 0418 e8b9 27c1 38bc 6f2e 92bd 2e9b df3c
00000140: 8dc6 f33c c9e8 02bd 1e8e f1bd 97c8 c8bb
00000150: e582 313d bf28 e4bd 22ee b5be 6a90 04be
00000160: f425 62bb 207d 24be 642c cfbe 4cfa 53be
00000170: 737a 8b3c 3c28 b6bc f3ad fdbd 2832 cdbb
00000180: c56b 9b3d e3c2 843d a9c3 003c 771a 373c
00000190: 4fb4 07bd 4c00 cc3c 9951 743d f65a f83d
000001a0: a0ad a43d 3132 ac3d 21fa c33d 3749 cfbd
000001b0: ecad e53d b7f2 ed3d 2fe3 0c3d cb0f b53d
000001c0: 7027 143d b228 3bbd d10c b93d 742b fabc
000001d0: cf41 ab3d 1c4f 8c3d b8b3 6a3d f7da 57bd
000001e0: 0dd9 ff3d 6bc4 2a3e c877 a13c 7a6d abbd
000001f0: 206c 943d 3217 ba3d 855e a23d 12fb 6abc
00000200: 4bf3 a53c bba8 41bd 1cc3 8d3c 0cd9 4cbc
00000210: 3efc fb3b 2ef4 253e 1d6e 0f3e 7549 5ebd
00000220: 1a95 6e3d 6208 5d3d 20b0 043e fe4f b93d
00000230: cd77 c53d 0528 2dbd 22ff babc 6dd2 6c3d
00000240: 3185 3ebd 55d4 2bbe f400 0abe c2c4 ce3c
00000250: 89ac aabd 0761 0fbe f224 7dbd 1d52 3f3e
00000260: 9922 933d 7650 e9bd 9bc2 553c 318c 2b3e
00000270: 5822 8ebb 0662 08be 17d4 ecbd 46d4 683d
00000280: b9d3 afbc 8788 31be fa75 0cbe e32e cb3c
00000290: dde8 463c 2a69 0cbe 0b2e dfbd 0155 f23d
000002a0: 8649 7fbc c096 93bd def8 be3c 652c 563e
000002b0: 460f 223d c90f 0ebe 58fe 0abe e418 c53d
000002c0: 3648 803c 638a 17be c540 0fbe 06fd 7ebb
000002d0: 05d7 31bd 4dd1 1bbe 6109 c8bd 2218 403e
000002e0: 5091 f83c 2fae 14be 5650 7e3c 5848 533e
000002f0: 19f5 d13c 4143 39be 3b6c debd b073 de3d
00000300: 7062 94bb f025 5dbc 4f7b b23d ca88 3d3c
00000310: a65c 633d 8aa7 42bc eb7d 553e 6b47 823d
00000320: c966 c93c f9ff fe3d c382 da3d d08d 0e3e
00000330: f89e 97bc d9d3 c83d 0563 173e 34a2 a5bd
00000340: 7ce5 abbd 19c5 f6bc 68cd 183d db88 be3d
00000350: 037a e23d 5ee4 7c3c 9bb3 133e c0a6 b03d
00000360: c393 a83d 966c ed3b 23cf a33d 6347 073e
00000370: c2e3 6e3b df1e c9bc 04b0 bf3d 1ffd 963d
00000380: 90fb 253d 2999 063e 7bc1 803d 1230 a63d
00000390: fe8e f03b 6f8a 2a3e 7305 203e 2ec0 b3bd
000003a0: 8105 3f3d e910 d03d 18e0 423e 69a7 953d
000003b0: fc91 95bd 9f8c 63bd a9dc a7bd 05d3 fc3c
000003c0: 067d f5bd 8564 39be cd6e 72bd b799 293c
000003d0: 0974 4ebe 6559 a5be 0783 65bd f786 183d
000003e0: dc6a 9ebe 28c9 bfbe 2b5b 11be d99d 9fbb
000003f0: 5ea8 9bbd a320 a5bd ae50 8a3c 9421 34bc
0.08588658 0.07407976 0.071599975 0.034787264 0.10070883 0.12695278 0.14694753 0.07605172
0.00083608937 0.20444128 0.14993823 0.01335144 -0.035525486 0.073366016 -0.044764128 -0.0907578
-0.04740912 0.06717181 0.07716352 0.019885827 -0.04663851 0.11836623 0.072691895 0.039584313
-0.021840531 0.2232545 0.19220656 0.06417833 0.06688156 0.11922937 0.087139904 -0.026646566
-0.046143804 0.11444209 0.035822913 -0.037798166 -0.016123686 0.1736034 -0.00016033479 -0.016457237
-0.02341478 0.23390152 0.098026104 0.11784053 -0.058121867 0.12549107 0.15149803 0.10703306
-0.028837232 -0.028625313 -0.115020804 -0.011727075 0.021166138 -0.05638168 -0.24501441 -0.03857568
-0.0056781215 -0.09333989 -0.2149278 -0.116506904 -0.014701636 -0.036519993 -0.10166838 -0.015661094
0.05199352 0.018422466 -0.09689119 -0.00012027676 0.02569421 -0.047442097 -0.26435292 -0.04113122
0.024700185 -0.10421997 -0.29953623 -0.1401195 -0.0004426838 -0.01127652 -0.07137763 0.027295675
0.029757762 -0.031960282 -0.11794685 -0.006127428 0.04333772 -0.11140584 -0.35533243 -0.12945715
-0.0034507485 -0.16063356 -0.40463555 -0.2070095 0.017026162 -0.022235982 -0.12386694 -0.0062620826
0.07588915 0.06482484 0.007859149 0.011175743 -0.03313094 0.024902485 0.05964813 0.121267244
0.08040929 0.08408011 0.09569193 -0.101213865 0.112148136 0.1161856 0.034396347 0.08840903
0.036170423 -0.045693107 0.09035648 -0.030538298 0.08362161 0.068510264 0.0573003 -0.052699056
0.12492571 0.1667649 0.019710436 -0.0837049 0.07247186 0.090864554 0.079281844 -0.014342086
0.020257613 -0.047280055 0.01730495 -0.01250292 0.0076899817 0.16206428 0.14006849 -0.054269273
0.058247663 0.053963073 0.12957811 0.090484604 0.09641991 -0.042274494 -0.022826735 0.057817865
-0.04651374 -0.16780217 -0.13476926 0.025240306 -0.0833369 -0.14001857 -0.061802812 0.18683667
0.07184333 -0.113923 0.013046886 0.16752698 -0.00433759 -0.13318643 -0.115638904 0.056843065
-0.021463262 -0.17337237 -0.1371688 0.02480263 0.01214048 -0.13711992 -0.10897454 0.118326195
-0.015581494 -0.07206488 0.023312028 0.20915373 0.039565347 -0.13873209 -0.13573587 0.09623888
0.015659433 -0.14798884 -0.13989551 -0.0038908138 -0.04341795 -0.1521656 -0.09767414 0.18759206
0.030342728 -0.14519571 0.015522083 0.20633066 0.025629567 -0.18092062 -0.10860487 0.108619094
-0.004528336 -0.013497815 0.087149255 0.011568258 0.05550828 -0.011880765 0.20848815 0.06361278
0.024585145 0.12451167 0.10669472 0.13921285 -0.01850842 0.09806032 0.14783867 -0.080875784
-0.0839338 -0.03012328 0.037305266 0.09303447 0.11058428 0.015435306 0.14423983 0.08625555
0.08231308 0.0072456105 0.079984926 0.13210826 0.0036451672 -0.024550853 0.09359744 0.07372498
0.04052311 0.13144363 0.062869035 0.081146374 0.0073412647 0.1665437 0.15627079 -0.0877689
0.04663611 0.10159475 0.19030797 0.073073216 -0.07303235 -0.05555403 -0.081963845 0.03086234
-0.11986737 -0.18104751 -0.0591877 0.01035159 -0.20161451 -0.32294765 -0.05603316 0.037238088
-0.30940902 -0.37458158 -0.14194934 -0.004871112 -0.07600473 -0.080628656 0.016884174 -0.010994334

decoder.2.bias f4 [3]
00000000: eacd b33d e83a ef3d 00fb fb3b
0.08779509 0.11681157 0.0076898336
